…
2025-03-07 17:17:39,789 - INFO - 产品类型编码映射: {'H': 0, 'L': 1, 'M': 2}
2025-03-07 17:17:39,792 - INFO - 故障类型映射: {0: '无故障', 1: 'HDF', 2: 'PWF', 3: 'OSF', 4: 'TWF', 5: 'RNF'}
2025-03-07 17:17:39,796 - INFO - 故障类型分布:
Fault_Type
0    9652
1     106
2      83
3      95
4      45
5      19
Name: count, dtype: int64
2025-03-07 17:17:39,808 - INFO - 类别权重: [1.72675784e-01 1.57232704e+01 2.00803213e+01 1.75438596e+01
 3.70370370e+02 1.75438596e+03]
2025-03-07 17:17:39,826 - INFO - 特征维度: 18
2025-03-07 17:17:39,827 - INFO - 类别数量: 6
2025-03-07 17:17:41,752 - INFO - 模型结构:
MambaFaultPredictionModel(
  (embedding): Sequential(
    (0): Linear(in_features=18, out_features=128, bias=True)
    (1): LayerNorm((128,), eps=1e-05, elementwise_affine=True)
    (2): GELU(approximate='none')
    (3): Dropout(p=0.2, inplace=False)
  )
  (layers): ModuleList(
    (0-3): 4 x ResidualBlock(
      (mixer): MambaBlock(
        (in_proj): Linear(in_features=128, out_features=512, bias=False)
        (conv1d): Conv1d(256, 256, kernel_size=(4,), stride=(1,), padding=(3,), groups=256)
        (x_proj): Linear(in_features=256, out_features=40, bias=False)
        (dt_proj): Linear(in_features=8, out_features=256, bias=True)
        (out_proj): Linear(in_features=256, out_features=128, bias=False)
      )
      (norm): RMSNorm()
    )
  )
  (norm_f): RMSNorm()
  (classifier): Linear(in_features=128, out_features=6, bias=True)
  (binary_classifier): Sequential(
    (0): Linear(in_features=128, out_features=64, bias=True)
    (1): LayerNorm((64,), eps=1e-05, elementwise_affine=True)
    (2): GELU(approximate='none')
    (3): Dropout(p=0.2, inplace=False)
    (4): Linear(in_features=64, out_features=2, bias=True)
  )
  (twf_classifier): Sequential(
    (0): Linear(in_features=128, out_features=64, bias=True)
    (1): LayerNorm((64,), eps=1e-05, elementwise_affine=True)
    (2): GELU(approximate='none')
    (3): Dropout(p=0.2, inplace=False)
    (4): Linear(in_features=64, out_features=2, bias=True)
  )
  (rnf_classifier): Sequential(
    (0): Linear(in_features=128, out_features=64, bias=True)
    (1): LayerNorm((64,), eps=1e-05, elementwise_affine=True)
    (2): GELU(approximate='none')
    (3): Dropout(p=0.2, inplace=False)
    (4): Linear(in_features=64, out_features=2, bias=True)
  )
)
2025-03-07 17:17:41,752 - INFO - 总参数数量: 495,564
2025-03-07 17:17:41,753 - INFO - 可训练参数数量: 495,564
2025-03-07 17:20:51,980 - INFO - 使用 CPU
2025-03-07 17:20:51,980 - INFO - 使用设备: cpu
2025-03-07 17:20:51,995 - INFO - 数据加载成功！
2025-03-07 17:20:51,995 - INFO - 数据集形状: (10000, 14)
2025-03-07 17:20:51,996 - INFO - 数据集列: ['UDI', 'Product ID', 'Type', 'Air temperature [K]', 'Process temperature [K]', 'Rotational speed [rpm]', 'Torque [Nm]', 'Tool wear [min]', 'Machine failure', 'TWF', 'HDF', 'PWF', 'OSF', 'RNF']
…
2025-03-07 18:11:07,626 - INFO - 故障类型映射: {0: '无故障', 1: 'HDF', 2: 'PWF', 3: 'OSF', 4: 'TWF', 5: 'RNF'}
2025-03-07 18:11:07,630 - INFO - 故障类型分布:
Fault_Type
0    9652
1     106
2      83
3      95
4      45
5      19
Name: count, dtype: int64
2025-03-07 18:11:07,648 - INFO - 类别权重: [8.63378920e-01 1.57232704e+01 2.00803213e+01 1.75438596e+01
 3.70370370e+02 1.75438596e+03]
2025-03-07 18:11:07,671 - INFO - 过采样后的训练集分布:
Fault_Type
0    6756
1     675
2     675
3     675
4     675
5     675
Name: count, dtype: int64
2025-03-07 18:11:07,686 - INFO - 特征维度: 18
2025-03-07 18:11:07,686 - INFO - 类别数量: 6
2025-03-07 18:11:09,350 - INFO - 模型结构:
MambaFaultPredictionModel(
  (embedding): Sequential(
    (0): Linear(in_features=18, out_features=256, bias=True)
    (1): LayerNorm((256,), eps=1e-05, elementwise_affine=True)
    (2): GELU(approximate='none')
    (3): Dropout(p=0.2, inplace=False)
    (4): Linear(in_features=256, out_features=128, bias=True)
    (5): LayerNorm((128,), eps=1e-05, elementwise_affine=True)
    (6): GELU(approximate='none')
    (7): Dropout(p=0.2, inplace=False)
  )
  (layers): ModuleList(
    (0-3): 4 x ResidualBlock(
      (mixer): MambaBlock(
        (in_proj): Linear(in_features=128, out_features=512, bias=False)
        (conv1d): Conv1d(256, 256, kernel_size=(4,), stride=(1,), padding=(3,), groups=256)
        (x_proj): Linear(in_features=256, out_features=40, bias=False)
        (dt_proj): Linear(in_features=8, out_features=256, bias=True)
        (out_proj): Linear(in_features=256, out_features=128, bias=False)
      )
      (norm): RMSNorm()
    )
  )
  (norm_f): RMSNorm()
  (classifier): Linear(in_features=128, out_features=6, bias=True)
  (binary_classifier): Sequential(
    (0): Linear(in_features=128, out_features=64, bias=True)
    (1): LayerNorm((64,), eps=1e-05, elementwise_affine=True)
    (2): GELU(approximate='none')
    (3): Dropout(p=0.2, inplace=False)
    (4): Linear(in_features=64, out_features=2, bias=True)
  )
  (twf_classifier): Sequential(
    (0): Linear(in_features=128, out_features=64, bias=True)
    (1): LayerNorm((64,), eps=1e-05, elementwise_affine=True)
    (2): GELU(approximate='none')
    (3): Dropout(p=0.2, inplace=False)
    (4): Linear(in_features=64, out_features=2, bias=True)
  )
  (rnf_classifier): Sequential(
    (0): Linear(in_features=128, out_features=64, bias=True)
    (1): LayerNorm((64,), eps=1e-05, elementwise_affine=True)
    (2): GELU(approximate='none')
    (3): Dropout(p=0.2, inplace=False)
    (4): Linear(in_features=64, out_features=2, bias=True)
  )
)
2025-03-07 18:11:09,351 - INFO - 总参数数量: 531,404
2025-03-07 18:11:09,351 - INFO - 可训练参数数量: 531,404
2025-03-07 18:11:09,353 - INFO - 模型训练器初始化完成
2025-03-07 18:11:09,359 - INFO - 开始训练，总轮次: 300
2025-03-07 18:11:09,370 - INFO - 轮次 1/300, 批次 0/317
2025-03-07 18:11:09,860 - INFO - 轮次 1/300, 批次 10/317
2025-03-07 18:11:10,246 - INFO - 轮次 1/300, 批次 20/317
2025-03-07 18:11:10,646 - INFO - 轮次 1/300, 批次 30/317
…
