…
2025-03-07 23:25:06,404 - INFO - 添加高级工程特征完成
2025-03-07 23:25:06,407 - INFO - 产品类型编码映射: {'H': 0, 'L': 1, 'M': 2}
2025-03-07 23:25:06,409 - INFO - 故障类型映射: {0: '无故障', 1: 'HDF', 2: 'PWF', 3: 'OSF'}
2025-03-07 23:25:06,410 - INFO - 故障类型分布:
Fault_Type
0    9713
1     106
2      83
3      98
Name: count, dtype: int64
2025-03-07 23:25:06,420 - INFO - 类别权重: [ 0.51477401 70.75471698 90.36144578 76.53061224]
2025-03-07 23:25:06,429 - INFO - 过采样后的训练集分布:
0    6799
1    1019
2    1019
3    1019
Name: count, dtype: int64
2025-03-07 23:25:07,947 - INFO - 模型结构:
MambaFaultPredictionModel(
  (embedding): Sequential(
    (0): Linear(in_features=19, out_features=256, bias=True)
    (1): LayerNorm((256,), eps=1e-05, elementwise_affine=True)
    (2): GELU(approximate='none')
    (3): Dropout(p=0.2, inplace=False)
    (4): Linear(in_features=256, out_features=256, bias=True)
    (5): LayerNorm((256,), eps=1e-05, elementwise_affine=True)
    (6): GELU(approximate='none')
    (7): Dropout(p=0.2, inplace=False)
    (8): Linear(in_features=256, out_features=128, bias=True)
    (9): LayerNorm((128,), eps=1e-05, elementwise_affine=True)
    (10): GELU(approximate='none')
    (11): Dropout(p=0.2, inplace=False)
  )
  (layers): ModuleList(
    (0-3): 4 x ResidualBlock(
      (mixer): MambaBlock(
        (in_proj): Linear(in_features=128, out_features=512, bias=False)
        (conv1d): Conv1d(256, 256, kernel_size=(4,), stride=(1,), padding=(3,), groups=256)
        (x_proj): Linear(in_features=256, out_features=40, bias=False)
        (dt_proj): Linear(in_features=8, out_features=256, bias=True)
        (out_proj): Linear(in_features=256, out_features=128, bias=False)
      )
      (norm): RMSNorm()
    )
  )
  (norm_f): RMSNorm()
  (classifier): Sequential(
    (0): Linear(in_features=128, out_features=128, bias=True)
    (1): LayerNorm((128,), eps=1e-05, elementwise_affine=True)
    (2): GELU(approximate='none')
    (3): Dropout(p=0.2, inplace=False)
    (4): Linear(in_features=128, out_features=4, bias=True)
  )
  (binary_classifier): Sequential(
    (0): Linear(in_features=128, out_features=64, bias=True)
    (1): LayerNorm((64,), eps=1e-05, elementwise_affine=True)
    (2): GELU(approximate='none')
    (3): Dropout(p=0.2, inplace=False)
    (4): Linear(in_features=64, out_features=2, bias=True)
  )
)
C:\Users\L\PycharmProjects\20250227\mamba-minimal\.venv\lib\site-packages\torch\optim\lr_scheduler.py:62: UserWarning: The verbose parameter is deprecated. Please use get_last_lr() to access the learning rate.
  warnings.warn(
2025-03-07 23:25:07,949 - INFO - 模型训练器初始化完成
2025-03-07 23:25:07,949 - INFO - 开始训练，总轮次: 300
2025-03-07 23:25:07,958 - INFO - 轮次 1/300, 批次 0/308
…
